workspace_rule_based/models/game_model.pth (torch, 65186 bytes, 15 tensors)

network.0.weight f4 [128, 27]
000000 2b 1a 85 3c 6a ec 04 be 5b 92 22 3e 2f 6f b7 3c
       0.01624783 -0.1298081 0.15876143 0.022391884
000010 9b 1e 51 bd 04 a6 58 3d 08 a8 55 3e 64 99 92 bd
       -0.05105458 0.0528927 0.2086488 -0.07158163
000020 42 af e6 3c 6d 1d 50 3d 36 3b 23 be c0 0f 51 3e
       0.028159741 0.050809313 -0.15940556 0.20416164
000030 ad a7 26 3e 69 e0 7f 3d 0d 8d 43 bd 4c 6e 22 be
       0.162749 0.062469874 -0.04774194 -0.15862387
000040 e5 ad 96 3c 40 50 f6 3d eb 36 a4 3d 22 b2 89 bc
       0.018393466 0.12027025 0.08018287 -0.016808573
000050 3b 3e 20 3e f7 ed 18 3b 83 7a 11 3e 10 88 ec bc
       0.15648739 0.0023335197 0.14206891 -0.028873473
000060 9d c1 1c be 78 51 de 3d 71 bd 34 be a3 ab 93 3d
       -0.15308233 0.10855383 -0.17650391 0.072104715
000070 62 df e3 3d 02 64 5d bd 81 3f b8 3c ff c8 27 bd
       0.11126591 -0.054050453 0.022491219 -0.04096317
000080 78 ac 40 3e 56 e9 12 be a1 d1 1c 3d 52 fc ba bd
       0.18815792 -0.14346823 0.038285855 -0.091301575
000090 e7 f6 94 3c c0 67 ba bc 3f b5 82 bd 10 b3 17 3e
       0.018184138 -0.02275455 -0.06382226 0.148144
0000a0 66 09 3c bd e7 8c 4a be 11 22 10 3e 41 ae ed 3d
       -0.0459074 -0.19780312 0.14075495 0.11605502
0000b0 d8 6a 6a 3d e1 57 16 3e 93 dc bc bd 12 e4 5b bd
       0.0572308 0.1468196 -0.09221759 -0.0536843
0000c0 ae 31 0f be 91 ad fd b9 43 94 a8 3d 77 2f d3 3d
       -0.13983795 -0.00048385237 0.08231404 0.103117876
0000d0 f2 c9 43 3d 81 af e5 bd 02 83 1a bc 74 d5 48 3e
       0.047800012 -0.11215115 -0.009430649 0.19612676
0000e0 c0 e3 f9 bd 68 77 1c bc 37 5a bd bd f9 e9 07 bd
       -0.12201643 -0.009549953 -0.09245723 -0.033182118
0000f0 bb 0f 79 be e7 5c bb bd a2 3e d2 3d 6d bd 9d 3c
       -0.24322407 -0.09148579 0.102658525 0.019255364
000100 6b 51 75 3d 86 4d 3d be 9c 43 7b 3d f7 3d 62 bc
       0.0598921 -0.18486604 0.061343774 -0.013808719
000110 e0 b1 33 bd 0c f2 0f 3d e6 c9 9d bd fc d3 03 3c
       -0.043870807 0.035142943 -0.07704525 0.0080461465
000120 68 5f 0e 3d a9 7e 3e 3d 0e a3 9b 3c fe 2d 48 3e
       0.034758955 0.04650751 0.018998649 0.19548795
000130 0c 38 32 bd b5 2c 5b 3d 3d 6e 17 3e 4e 53 95 bd
       -0.04351048 0.053509433 0.14788146 -0.0729128
000140 23 24 df 3d a2 84 7a 3b 44 4f db bc ac a0 a5 3d
       0.108955644 0.0038226028 -0.026771195 0.08087286
000150 19 62 fa bd 42 34 d7 ba a5 24 14 3d 54 b9 55 be
       -0.12225742 -0.0016418772 0.03616776 -0.20871478
000160 24 f8 8e bc b6 43 9b 3d ff 78 46 3e fa 67 8e 3c
       -0.017452307 0.07581274 0.19382094 0.017383564
000170 84 67 66 be d9 ea 03 3e 64 3e 71 3d 11 e1 b3 bd
       -0.22500426 0.12882556 0.05889739 -0.087831624
000180 09 ed 92 3d 33 73 0d 3e 5c 70 20 bc 3a bb 64 3d
       0.07174117 0.13813476 -0.009792414 0.055842616
000190 78 2e bc bc 2b 2e 01 3e 2c 43 d0 3d 81 fe 88 bd
       -0.022971377 0.12615268 0.10169062 -0.06689168
0001a0 25 69 f0 3c 2f b5 a2 3d 78 5a f4 3c 16 8d 8f 3d
       0.029347012 0.07944714 0.029828295 0.07009332
0001b0 bb d9 1b bc dd 64 c9 bd 84 9d a4 3d 05 6a 2a 3e
       -0.00951236 -0.09833691 0.08037856 0.16642006
0001c0 e5 87 fd 3c 9d e5 f2 3d f6 1b 12 3e ab 77 12 be
       0.030948589 0.118602015 0.14268479 -0.14303462
0001d0 0b 23 d6 3d 47 b0 97 3c 2c f8 d3 bd db 7f 81 bd
       0.10455903 0.018516673 -0.103500694 -0.063232146
0001e0 ad 6b 3b 3d b3 b9 b3 bb b9 f1 28 be dd bc 57 3c
       0.045756985 -0.0054847836 -0.1649846 0.013167587
0001f0 46 e0 86 3d ab 7d 03 bd 3e 08 7a 3d 3c 36 71 3b
       0.065857455 -0.03210227 0.061043017 0.0036806008
000200 5b 12 4c bd e6 68 fe bd f2 cd de 3d 8e 37 12 bd
       -0.049822193 -0.124223515 0.10879125 -0.035697512
000210 64 5f 19 3e 08 b7 00 be a4 c5 1a 3e 43 70 02 3e
       0.14977795 -0.12569821 0.15114456 0.12738137
000220 34 44 e0 3d d8 09 fa 3d f7 aa d2 3d 96 f3 b8 3d
       0.10950509 0.12208909 0.10286515 0.09030835
000230 e8 36 6b 3d cb a2 35 bd 6d bd 21 3c be 1a a1 3d
       0.05742541 -0.044344705 0.009871823 0.07866429
000240 fe b4 8f 3d 7b c0 4f bd cb eb 97 bc 76 d9 53 bc
       0.070169434 -0.050720673 -0.018545052 -0.012930265
000250 27 cf 22 3e 95 46 db 3b 57 a5 f1 3d 2c 8d bd bc
       0.15899335 0.0066917636 0.11799114 -0.023138605
000260 47 51 e7 bd 9f f7 ef 3d 04 e8 26 be ee d7 67 bd
       -0.11294799 0.11717152 -0.16299444 -0.05660241
000270 25 89 94 bd ff a6 ab 3c 3e 1c e3 bd e8 06 16 3d
       -0.07252721 0.020953653 -0.11089371 0.03662768
000280 89 89 85 bd 47 b8 1e be 36 d6 06 3e 31 0d 92 bd
       -0.065203734 -0.15499984 0.13167652 -0.07131422
000290 e7 75 02 3e 42 45 27 3d 3c 24 31 3d 92 f3 05 be
       0.12740289 0.040837534 0.043247446 -0.13081196
0002a0 29 63 82 3d 2f b3 70 3c df 2c b8 bd ad 0b 5e 3d
       0.063665695 0.014691158 -0.089929335 0.054210354
0002b0 3f 83 69 3d 2a 3a c8 bd 63 02 7a bd ca f0 7a be
       0.05700993 -0.09776719 -0.061037432 -0.24505916
0002c0 20 a9 b1 3c ea 2a 27 3d bc d9 9d bd e8 1f 8a bd
       0.02168709 0.04081241 -0.07707545 -0.06744367
0002d0 ff 5e 2f be 93 76 09 3e e6 af 82 bd ef 3f 25 3e
       -0.17126082 0.13424139 -0.06381206 0.1613767
0002e0 e1 9f b1 3d c8 8f 1f 3e 53 49 f7 3d ad 21 05 be
       0.086730726 0.15582192 0.12074532 -0.13001128
0002f0 70 51 2e 3e 3e 95 1e bd 9b 18 8c bd 0a 5c d8 bd
       0.17023253 -0.038716547 -0.068406306 -0.1056443
000300 2b 3b 7c bd b2 7f d8 3d e9 af 5d bd 4f 9f b4 bd
       -0.061579864 0.10571231 -0.05412284 -0.08819448
000310 c3 c8 36 3e c6 da 56 3d d1 3e 14 3e dd 78 13 3e
       0.17850022 0.052454732 0.14477088 0.14401574
000320 20 ba 58 3e fe 1b 87 3b c8 c0 53 be af 19 f0 3d
       0.21164751 0.00412321 -0.20679009 0.11723649
000330 42 3a d6 bd 89 1a bb bd 8d 73 6a 3c 5f 3a 22 be
       -0.104603305 -0.091359206 0.014309776 -0.1584258
000340 69 be a8 bd 49 44 52 be f1 18 3f be 00 87 bc 3d
       -0.08239443 -0.20533861 -0.18661858 0.09205437
000350 66 eb 12 be 03 16 c0 bd cc d7 54 3c ee 01 13 3e
       -0.1434761 -0.093791984 0.012990903 0.14356205
000360 10 4a f5 bc a0 c4 ce 3d 68 b0 02 be df 58 f1 bd
       -0.029942542 0.10096097 -0.12762606 -0.11784529
000370 b0 a8 ee bd 64 a0 63 3c 58 51 a5 bd 1f b9 29 be
       -0.11653268 0.013893221 -0.08072156 -0.16574524
000380 38 98 b6 bc cc 52 3d bb 3a cd 1f bd d9 31 9e bd
       -0.02228938 -0.0028888462 -0.03901408 -0.077243514
000390 fc e3 0f 3e 20 d6 69 3c 27 e2 e2 bd 04 af 12 be
       0.14051813 0.014272243 -0.110782914 -0.14324576
0003a0 cb bd 31 3e 95 0e c0 3d 13 70 7a 3d 96 bc 85 bd
       0.17357557 0.09377781 0.06114204 -0.065301105
0003b0 61 08 ca 3a bb 87 95 3e bb 17 01 3e 4c 8a 2e bd
       0.0015413874 0.29205117 0.12606709 -0.04261236
0003c0 b4 85 e0 3d e3 2b 3c 3e 22 c7 27 3d 81 e0 91 bd
       0.10963002 0.18376116 0.040961392 -0.07122899
0003d0 4b d6 83 3d d6 92 fe 3c 2f 05 28 bd cc 55 c8 bd
       0.064373575 0.031075876 -0.04102057 -0.097819895
0003e0 4c 4a 72 bd d0 3d 8f 3e 67 11 a5 3b b2 76 29 3d
       -0.059152886 0.27976847 0.005037475 0.041372962
0003f0 8d ef be 3d bb 8e b3 bd 10 d6 9d bd ab 95 17 be
       0.093230344 -0.08767458 -0.07706845 -0.14803188

network.0.bias f4 [128]
000000 c1 97 75 bd 2f 30 41 3d 84 8e b9 3c 15 a5 f2 3a
       -0.059959177 0.047165092 0.022650965 0.0018512333
000010 bb 49 bd bd 4a ab 4d 3d 13 bf 39 3e 4b 02 1b 3c
       -0.092425786 0.050212182 0.18139295 0.009460996
000020 b1 b8 cc bd 99 79 7b 3e be 39 e7 bd d4 1e ba 3c
       -0.099961646 0.24558105 -0.1129031 0.022719778
000030 c7 62 f5 bd 6a 18 af 3c 5f 2d 2c 3e 8e ec 00 be
       -0.11981731 0.021373946 0.16814183 -0.12590238
000040 9d 50 45 be eb c5 62 3d fe ee 6f be 06 43 42 be
       -0.19269033 0.05536453 -0.23431012 -0.1897088
000050 bc 85 99 3d 26 a1 08 3d 6f af 4d be 69 f2 49 3d
       0.07496211 0.033356808 -0.20086454 0.049303446
000060 36 11 cb bc 35 4a 8d 3d 2c ea 07 be 44 f6 51 3d
       -0.02478848 0.068989195 -0.13272923 0.051260248
000070 55 c5 a8 bd 56 ba e5 3d a3 8b 8b 3d cf 98 d9 3d
       -0.08240763 0.112171814 0.06813743 0.10624849
000080 fa 7d 07 bd bb a4 3a 3e a2 f6 e8 bc 72 42 3f be
       -0.033079125 0.18226902 -0.028437916 -0.1867769
000090 fb 2d a2 3c 89 a0 d5 bd bb 7b ba 3d dc 22 cf bd
       0.019797316 -0.1043101 0.09105631 -0.10114071
0000a0 31 da 18 be ea 59 29 be 81 fb 28 be 99 6e 65 bc
       -0.14926983 -0.16538206 -0.16502191 -0.014003419
0000b0 8a 94 04 bd f9 5d c6 bc 49 1f 1e bb fc 09 4e 3e
       -0.03236822 -0.024214732 -0.0024127534 0.20120996
0000c0 71 23 92 bb 71 7e c3 bd 09 48 24 3e 85 0e 24 3e
       -0.0044597914 -0.09545601 0.16043104 0.16021164
0000d0 18 c2 29 3e 4b ba b3 bd a8 1a 38 bb c8 ad 63 3e
       0.16577947 -0.08775767 -0.002809206 0.22234261
0000e0 42 4a 38 3d 85 db 7d bd bf a8 ef 3d e0 8d 0e 3e
       0.044992693 -0.06197693 0.11702108 0.13921309
0000f0 5b 83 99 bd 3a f6 56 3e 52 0c 37 3c 4e c1 08 3c
       -0.07495757 0.20992365 0.011172371 0.008346869
000100 a3 94 55 bd 16 20 0f 3d 3f d1 07 be 7a 5c db 3d
       -0.052143704 0.03494271 -0.13263415 0.10710998
000110 e2 55 18 bd b8 ec 7a 3d df 0d ee 3d 7d 2f 14 3d
       -0.03719128 0.06126091 0.116237395 0.0361781
000120 25 c4 4e 3e 04 fd 6d 3d 9a d9 10 be c2 1b f3 3d
       0.2019201 0.058102623 -0.14145508 0.11870529
000130 45 35 0b 3e c8 b0 56 3e a8 41 3d be 5a 0b da 3c
       0.1359454 0.20965874 -0.18482077 0.026616741
000140 d9 b5 8d bd c9 0a 6f 3e fc 25 95 bd d4 25 a1 3d
       -0.0691945 0.23343958 -0.072826356 0.07868543
000150 a8 17 2d 3e 22 74 ac bc 69 a5 8a 3d e6 d7 de bd
       0.16903555 -0.02105147 0.06769831 -0.10881023
000160 6a 0a 1b be 5a af 1d be d3 11 cc 3d c4 70 99 3c
       -0.15140691 -0.15398923 0.09964337 0.018730529
000170 ee b9 30 bd 97 bf 3e ba a0 83 14 bc 90 c7 d7 bd
       -0.043146066 -0.0007276474 -0.009064585 -0.105361104
000180 98 85 b2 bd 0d 2c 2c 3e 0a d2 0e be 52 24 bb bd
       -0.08716887 0.16813679 -0.13947311 -0.09137787
000190 c9 83 29 be 03 63 12 be 31 8b 0d 3e ac 0c c0 bd
       -0.16554178 -0.14295582 0.13822629 -0.09377417
0001a0 9b 76 fe bd d5 26 b6 bd e2 ee 24 be 30 59 15 be
       -0.12424966 -0.08894125 -0.16106752 -0.14584804
0001b0 ef 72 b8 3c 3c 39 8e 3b 57 36 c5 3d 11 f6 fc bd
       0.022515742 0.004340319 0.09629505 -0.12351621
0001c0 c3 1c 5d be 7f 4a 4e 3e c3 25 3d 3e fa 70 13 be
       -0.21593003 0.20145606 0.18471436 -0.14398566
0001d0 00 16 35 3c 83 ef d4 bd 22 56 49 3e dc 1c 34 3e
       0.0110526085 -0.10397246 0.19661763 0.17589134
0001e0 87 e9 4c bd 8f 2d 49 3e a6 bf 5f bc d4 d0 44 3e
       -0.050027397 0.19646285 -0.013656532 0.19220287
0001f0 99 27 73 bd a0 a2 74 bd c7 33 92 bd 9e 22 30 3e
       -0.059363935 -0.059725404 -0.07138782 0.17200705

network.2.weight f4 [128]
000000 ec 47 77 3f 09 f2 75 3f 84 62 85 3f af 97 82 3f
       0.9659412 0.9607244 1.042069 1.020254
000010 e2 73 73 3f 0d 71 7c 3f e3 85 7b 3f 44 fd 73 3f
       0.950987 0.9861 0.9825117 0.9530833
000020 22 5a 7f 3f 0b 91 7f 3f dc fe 79 3f 9f f2 7a 3f
       0.99746907 0.99830693 0.9765451 0.9802646
000030 a8 74 80 3f 36 22 83 3f d5 01 7d 3f 51 86 82 3f
       1.0035601 1.0244815 0.9883092 1.019724
000040 d7 7a 99 3f dd 8f 82 3f 8a 0d 8c 3f 80 cc 71 3f
       1.1990613 1.0200154 1.0941632 0.9445267
000050 40 96 82 3f 79 d2 79 3f 89 70 7c 3f 45 57 85 3f
       1.0202103 0.9758678 0.98609215 1.0417258
000060 f1 89 79 3f 2a 7c 76 3f 78 21 84 3f 83 98 74 3f
       0.97476107 0.9628321 1.0322714 0.95545214
000070 f0 30 6e 3f 60 3f 76 3f e2 02 7b 3f a4 8f 89 3f
       0.9304342 0.9619045 0.98051274 1.0746961
000080 74 5c 87 3f a8 a0 80 3f 9b a5 7a 3f 9e b2 83 3f
       1.057509 1.0049028 0.97908944 1.0288885
000090 22 c6 87 3f fa 19 79 3f 13 85 77 3f 81 99 82 3f
       1.060734 0.9730526 0.9668743 1.0203096
0000a0 54 17 80 3f 3e f3 72 3f 73 69 82 3f 20 b0 82 3f
       1.0007119 0.9490241 1.018843 1.0209999
0000b0 66 17 7e 3f 99 46 82 3f 9e 86 77 3f d2 b7 81 3f
       0.99254453 1.0177795 0.96689785 1.0134223
0000c0 cf fa 78 3f 00 03 7a 3f 3f b0 81 3f df 9c 77 3f
       0.97257704 0.9766083 1.0131911 0.9672374
0000d0 60 1d 75 3f 70 82 7d 3f 58 dc 7b 3f 49 6b 93 3f
       0.9574795 0.99027157 0.9838309 1.1517116
0000e0 af b3 79 3f bf c6 75 3f 8a da 79 3f 67 b5 7e 3f
       0.975398 0.9600639 0.9759909 0.9949555
0000f0 54 cd 7e 3f b2 b6 7d 3f 2d f0 83 3f 97 74 76 3f
       0.99532056 0.99106896 1.0307671 0.9627165
000100 e1 47 77 3f de 9d 7c 3f 76 77 7e 3f 45 da 76 3f
       0.96594054 0.98678386 0.9940103 0.964268
000110 4f 28 83 3f 3c 89 80 3f ce 14 73 3f 22 bf 7a 3f
       1.0246676 1.0041881 0.9495362 0.97947896
000120 5f f9 81 3f 5d 36 8d 3f f9 d5 71 3f 09 6b 80 3f
       1.0154227 1.1032215 0.9446712 1.0032665
000130 23 88 78 3f 10 76 85 3f f4 c5 86 3f 34 9e 7e 3f
       0.9708273 1.0426655 1.052916 0.9946015
000140 56 2d 7f 3f 40 36 83 3f da 9c 7c 3f d1 34 82 3f
       0.9967855 1.0250931 0.98676836 1.0172368
000150 4c c8 7d 3f 32 25 7b 3f 6c ac 79 3f 22 77 79 3f
       0.99133754 0.9810363 0.9752872 0.9744741
000160 cd 0e 85 3f b9 8f 7a 3f 06 9c 81 3f 69 0b 7a 3f
       1.0395142 0.97875553 1.012574 0.9767366
000170 c5 3f 7a 3f 66 63 81 3f bc 21 78 3f 35 8e 82 3f
       0.97753555 1.0108459 0.96926475 1.0199648
000180 a7 fc 7a 3f 43 ce 71 3f 30 cd 76 3f 92 07 7c 3f
       0.98041767 0.94455355 0.9640684 0.9844905
000190 0b 96 7c 3f 8c be 6e 3f 10 ce 87 3f d2 65 6f 3f
       0.9866645 0.932595 1.060976 0.9351474
0001a0 71 87 7a 3f 3b 94 7d 3f bc bf 87 3f 6c d9 71 3f
       0.9786292 0.99054307 1.0605388 0.94472384
0001b0 26 10 7f 3f ec 13 79 3f 66 44 84 3f 52 c8 7e 3f
       0.99634016 0.97296023 1.0333374 0.99524415
0001c0 fb ea 74 3f 6e f5 81 3f b9 80 7c 3f 28 36 73 3f
       0.9567105 1.0153024 0.98633915 0.9500451
0001d0 3b 9c 80 3f ea 6f 7d 3f 97 7e 72 3f bc b8 86 3f
       1.0047678 0.9899889 0.9472441 1.0525126
0001e0 7a 82 7f 3f be f1 85 3f 0a be 7c 3f 4f 3b 81 3f
       0.99808466 1.0464399 0.98727477 1.0096225
0001f0 b3 73 80 3f e5 1f 80 3f af f1 82 3f 02 bc 82 3f
       1.0035309 1.0009733 1.0230006 1.0213625

network.2.bias f4 [128]
000000 27 f5 08 bd 35 83 62 3c 55 fb 92 3c c0 cc 85 3c
       -0.03343692 0.0138252275 0.01794211 0.016332984
000010 cf a8 b7 39 3e b5 17 3d 6b de 8b bc 05 0c fd bc
       0.00035030252 0.03703808 -0.01707383 -0.03088952
000020 63 4e a4 3d 85 32 7e 3d 5c d1 f0 bd 5d a3 74 3d
       0.080227636 0.062059898 -0.11758682 0.059726108
000030 45 48 5a bd 65 3c 42 3d 80 bc a1 3d 37 9a 55 bd
       -0.053291578 0.047420878 0.07897282 -0.052149024
000040 59 b9 8b bd 97 7d 89 bc 77 a0 e9 3c f5 83 83 3d
       -0.06822462 -0.016783519 0.028518898 0.06421653
000050 5d a4 99 3d 08 c1 43 bc 87 c7 8d 3d 6c db 9a bc
       0.07502053 -0.011947878 0.069228224 -0.018903457
000060 b8 49 94 3c d7 0b 14 3d ff 08 11 3d 48 6c 9c 3d
       0.018101558 0.036144104 0.03540897 0.076378405
000070 ac b3 04 3d b4 4b 86 3d 82 4b 05 bb 75 d5 1b 3d
       0.03239791 0.06557408 -0.0020339196 0.038045365
000080 78 01 d1 bc 0b c7 ab bc ef 50 80 bd 66 9e 40 bd
       -0.025513396 -0.020968935 -0.06265437 -0.04702606
000090 09 1f 2b be d9 27 09 3c 4c e2 b6 3d 42 f2 89 3a
       -0.16711058 0.008371317 0.089298815 0.0010524469
0000a0 aa 48 aa bc 14 05 a4 bd b1 70 e0 bc b7 cf 68 3d
       -0.020786602 -0.08008781 -0.027397485 0.056838717
0000b0 73 64 97 3c 62 96 be bc 1a d7 60 3c cb dd 33 3c
       0.018480515 -0.023265067 0.013723159 0.0109781725
0000c0 74 b5 95 3c 9b bf 46 3c 1c d5 9a 3d da 0a 91 bd
       0.018275 0.012130643 0.07560179 -0.07082148
0000d0 47 b7 ad bc a2 81 c9 3c 47 6e a7 3d b6 0c 83 3d
       -0.021205558 0.024597947 0.081753306 0.06398909
0000e0 2b c0 6d 3d 0e 08 8e 3b 1a 5f 33 3d fd cc 35 3c
       0.058044594 0.0043344563 0.043791868 0.011096236
0000f0 d6 f2 e5 3c 61 62 92 bc 88 e4 c5 3c 26 78 2d 3d
       0.028069895 -0.017869176 0.024156824 0.04235091
000100 8d 7d 98 3d 10 6a 81 bd 97 b2 c0 3d 65 94 38 3d
       0.07445822 -0.06319058 0.09409063 0.045063395
000110 8c 64 ab 3b 7b 6c 4e bd 2c 17 a6 bd 72 99 19 bc
       0.005230492 -0.050396424 -0.081098884 -0.009374963
000120 aa 3c ee ba 41 9a cd bc f1 4d e8 3c 7a fa 36 3d
       -0.0018176038 -0.025097968 0.028357478 0.044672467
000130 22 44 90 bc 26 74 e5 39 65 ca 27 bd 74 1d 58 bd
       -0.017610613 0.0004376482 -0.040964503 -0.052762464
000140 61 01 db ba 8c 76 e5 bc 7a f9 5f bd fa 6d 84 bc
       -0.0016708785 -0.02801063 -0.05468128 -0.016165722
000150 e2 f0 f0 bc ce 41 4c bc 9a 62 32 3c 8b 76 05 3d
       -0.029411737 -0.012466861 0.010887766 0.032583755
000160 6e c2 d3 bc 09 8c 7c bb b3 0a 8c 3d 41 d9 c7 bd
       -0.025849547 -0.0038535616 0.06837978 -0.09758235
000170 b0 69 23 bc d3 d8 33 3b 98 9d 61 3d 03 b8 b1 3d
       -0.009973928 0.002744247 0.055081934 0.086776756
000180 15 f5 fa 3c 19 a8 10 3d 71 ff 99 3c 92 a5 0c bc
       0.030634442 0.03531656 0.018798562 -0.008584397
000190 3a 22 c5 bc 4a e8 97 bc 27 a7 86 bd c4 85 88 3d
       -0.024064172 -0.018543381 -0.065748505 0.06666139
0001a0 c8 24 1a 3d 0c b3 4a bc 8f ee 91 bd c8 af e7 3c
       0.037632734 -0.01237179 -0.071255796 0.028282061
0001b0 ce 0f 9d 3d 2a d8 36 3c 29 37 8c bd bd 2c d1 3c
       0.0766903 0.011159936 -0.068464585 0.025534028
0001c0 5f db a7 bb 41 f1 90 3d 44 02 88 3d 8c 15 ff ba
       -0.0051225866 0.070772655 0.06641057 -0.0019461378
0001d0 85 63 eb bc bf 3c 36 bc 3e d4 b1 3d f0 a7 ca bc
       -0.028733978 -0.011122881 0.0868306 -0.024738282
0001e0 bb 12 1c 3d 2e a7 7d 3d 5e 95 93 3b be 59 c0 3d
       0.0381038 0.061927013 0.00450389 0.09392117
0001f0 44 eb 6d bc 3a 3a 24 bd 8f 52 2b 3d f8 6e 5f 3b
       -0.014521424 -0.04009459 0.04182678 0.0034093242

network.2.running_mean f4 [128]
000000 26 52 2e 3e f8 7e 80 3e 33 28 83 3e 67 48 95 3e
       0.17023525 0.2509687 0.25616607 0.291568
000010 d5 d3 b5 3d 41 65 67 3e bd f4 aa 3e b5 eb 55 3e
       0.088782944 0.22597219 0.33389845 0.20890696
000020 29 01 82 3e 97 b9 bf 3e 6e d8 58 3e 75 4e 50 3e
       0.2539151 0.3744628 0.21176311 0.20342429
000030 88 4e 8e 3d 46 48 b4 3e fb b6 03 3f 66 c9 04 3e
       0.069485724 0.3521139 0.5145108 0.12967452
000040 1f 85 a9 3c d1 16 90 3e 9e 0d 64 3d 80 c5 90 3d
       0.02069336 0.28142408 0.05567705 0.0706892
000050 2d 45 ad 3e 01 90 68 3e 4a 46 3f 3e 0e 62 4d 3e
       0.3384184 0.22711183 0.18679157 0.20056936
000060 3d 10 81 3e 32 71 73 3e d3 27 54 3d 26 0f 6a 3e
       0.252077 0.2377365 0.05179579 0.22857341
000070 68 60 32 3e b8 4d 93 3e 50 22 84 3e 29 b1 73 3e
       0.17419589 0.28770232 0.25807428 0.2379805
000080 26 a2 9c 3e b3 ea a2 3e 0b 89 2a 3e 91 8f 36 3e
       0.3059246 0.31819686 0.1665384 0.17828204
000090 84 fc 0f 3e 3e d7 b0 3e 56 8c 67 3e 3a dc 99 3d
       0.14061171 0.34539217 0.22612128 0.07512708
0000a0 9c d4 ef 3d a0 02 77 3e ae 8b 13 3e e6 3e 32 3e
       0.11710474 0.24122095 0.14408752 0.17406806
0000b0 45 da 38 3e a6 7c 60 3e 49 ab 91 3e ad 2c c1 3e
       0.18052013 0.2192255 0.28450993 0.37729397
0000c0 a7 cd 48 3e 96 09 87 3e 4f 32 c6 3e 56 85 98 3e
       0.196097 0.263745 0.38710257 0.29789227
0000d0 41 fc c5 3e 64 a2 41 3e ec 29 4a 3e 0c e9 82 3e
       0.38669017 0.18909603 0.19742554 0.25568426
0000e0 07 4b 31 3e 80 21 80 3e f0 8e 63 3e a2 35 ba 3e
       0.17313777 0.25025558 0.22222495 0.36369044
0000f0 36 46 77 3e 37 0e 9a 3e 67 c6 9a 3e 97 4f 8f 3e
       0.24147877 0.3008897 0.30229494 0.2799041
000100 f1 98 0d 3e db cc 26 3e 55 da 1e 3e a2 2c 8a 3e
       0.13827874 0.16289084 0.15512975 0.26987177
000110 12 07 af 3e 60 7e 59 3e 3e 5f 9e 3e ec 22 53 3e
       0.34185082 0.21239614 0.3093204 0.2061879
000120 73 a1 f2 3e 41 dd 24 3e ca 49 17 3e c3 85 86 3e
       0.473888 0.16100027 0.14774242 0.26273927
000130 6e c2 da 3e b3 a8 ae 3e 4c 6b bc 3d 53 b9 da 3e
       0.42726463 0.34113082 0.09200153 0.42719516
000140 d5 d8 5a 3e d9 2f 95 3e 50 61 26 3e ea 71 b0 3e
       0.21371777 0.29138067 0.1624806 0.3446191
000150 09 b9 91 3e 4d e6 71 3e 03 e0 b7 3e cb f5 4f 3e
       0.28461483 0.23623009 0.35913095 0.20308606
000160 53 88 a5 3e 4f 42 3a 3e 82 64 9a 3e 1e 6d 29 3e
       0.3233057 0.18189357 0.30154806 0.16545531
000170 f9 b5 1c 3e 5b 57 4c 3e db f6 80 3e 0a d8 56 3e
       0.15303792 0.19955198 0.25188336 0.2098085
000180 8b 68 5f 3e 88 21 8a 3e 11 fe f6 3d 71 e3 10 3e
       0.21817224 0.26978707 0.12060178 0.14149262
000190 a2 1d 0c 3e 4d fe d4 3d 61 bb 92 3e d8 ef 86 3e
       0.13683179 0.104000665 0.28658584 0.2635486
0001a0 94 68 27 3e 09 98 77 3e 88 20 ce 3d 17 f2 16 3e
       0.16348487 0.2417909 0.100647986 0.14740787
0001b0 42 34 ad 3e df 2d 3f 3e 2d 71 87 3e bc 40 66 3e
       0.33828932 0.18669842 0.26453534 0.22485632
0001c0 81 80 2d 3e da 69 aa 3e da 9f 93 3e a8 71 22 3e
       0.16943552 0.33283883 0.28832895 0.15863669
0001d0 d9 41 a5 3e 99 44 91 3e 98 02 b8 3e a3 8a dd 3e
       0.322768 0.28372648 0.3593948 0.43269834
0001e0 78 06 64 3e 17 2b b8 3e 1b 27 82 3e 3a 74 d9 3e
       0.22268093 0.35970375 0.2542046 0.42471486
0001f0 41 ea 44 3e 07 c7 29 3e db 39 75 3e 2c a4 9c 3e
       0.19229986 0.16579829 0.23947851 0.30594003

network.2.running_var f4 [128]
000000 41 ff d5 3d 30 77 3b 3e 30 37 15 3e ac 33 5c 3e
       0.104490764 0.18307185 0.14571834 0.21504086
000010 d3 c7 60 3d 1c 2c 3d 3e fa a4 39 3e 84 88 d7 3d
       0.054878067 0.18473858 0.1812934 0.10524085
000020 83 52 67 3e 31 cc f9 3d 4f 90 b1 3d c2 f7 06 3e
       0.2259007 0.121971495 0.08670103 0.1318045
000030 8e 7e 69 3c 88 1f 9f 3e b9 17 1a 3f de 0c 04 3d
       0.014251364 0.31078744 0.6019245 0.032238834
000040 21 9f 41 3b 8c 7e 2d 3e dd c3 2d 3c 23 2e 2b 3d
       0.002954431 0.16942805 0.0106057795 0.041792046
000050 33 bb a0 3e e5 ce d3 3d d1 a5 42 3e 27 3a 8a 3d
       0.31392822 0.103421964 0.19008566 0.06749373
000060 0a 46 99 3d ae ef c1 3d b2 3b 11 3c f3 41 15 3e
       0.07484062 0.094695434 0.00886433 0.14575939
000070 3f ec be 3d 8e 25 79 3e ef b7 ff 3d a5 02 5f 3d
       0.09322404 0.24330732 0.124862544 0.05444588
000080 e9 a0 e3 3d 7e cf ab 3d cd 37 a6 3d 01 2b b0 3d
       0.111146756 0.08389185 0.08116112 0.08601952
000090 07 d4 d9 3c c2 b8 d5 3e 6e 4a cc 3d 18 1d a4 3c
       0.02659036 0.41742522 0.09975134 0.020033404
0000a0 22 25 0b 3d 8f 4b c6 3d 1f 38 2f 3d bb 0f b1 3d
       0.03397096 0.096823804 0.04277813 0.086455785
0000b0 39 6d 85 3d f7 2b 3a 3e 92 f4 f3 3d 89 51 97 3e
       0.06514973 0.18180834 0.119118825 0.29554394
0000c0 fb f3 01 3e 55 16 1a 3e aa 23 86 3e 60 3d d1 3d
       0.12690727 0.15047581 0.26199085 0.102167845
0000d0 90 ac c0 3e 3d b6 f6 3d 36 ce d8 3d 36 5c c6 3c
       0.37631655 0.12046478 0.105862066 0.024213891
0000e0 e5 f4 9c 3d 98 ed 81 3e 2d 11 e7 3d b3 c7 a2 3e
       0.076638974 0.25376582 0.11282573 0.31792983
0000f0 fb 58 79 3e 2e 78 99 3d 37 50 5e 3e 71 48 7a 3e
       0.2435035 0.074936256 0.21710287 0.24441697
000100 aa 66 5b 3d 0a 0f 9d 3d cf 24 02 3e e6 60 ff 3d
       0.053564705 0.07668884 0.12709354 0.12469654
000110 19 47 96 3e c6 5f 9a 3d 99 c7 f8 3d d9 ca 8e 3d
       0.29351118 0.075377986 0.12147445 0.06972284
000120 f8 ff 6e 3e 58 63 b3 3c 3e c6 b6 3d c5 57 a8 3d
       0.23339832 0.021897957 0.089245304 0.08219866
000130 4e ea 3a 3e 85 47 dd 3d 2d e5 8e 3c 21 e1 81 3e
       0.18253443 0.10804657 0.017443264 0.25367072
000140 e7 db bb 3d 67 69 81 3d 5f 0a 8b 3d f0 fe 26 3e
       0.091728024 0.06318932 0.067890875 0.16308188
000150 83 94 ee 3d d6 0a 39 3e fd b8 5c 3e 13 81 2b 3e
       0.1164942 0.1807054 0.21554942 0.16748457
000160 ca a0 1e 3e f2 66 07 3e 32 70 04 3e 92 17 68 3d
       0.15491024 0.13222864 0.12933424 0.056663103
000170 8c 58 e7 3d 60 ca 2e 3e 9a a2 36 3e 01 e2 09 3e
       0.11296186 0.17069387 0.17835465 0.1346512
000180 37 2c 2e 3e 72 52 36 3e 19 82 6d 3d 30 2c 3e 3d
       0.17009054 0.17804888 0.0579854 0.04642886
000190 dd 42 87 3d 2f bf 3f 3d 75 da ec 3d 20 3e 67 3e
       0.0660455 0.046813186 0.11565105 0.22582293
0001a0 b9 00 af 3d b7 5c 86 3e a2 20 14 3d 81 a2 ca 3d
       0.0854506 0.2624261 0.036163934 0.098942764
0001b0 e4 af 97 3e b4 fb c0 3d fd ca ba 3d 31 9d 16 3e
       0.2962638 0.094230086 0.09120748 0.14708401
0001c0 3b 23 12 3e 7d ee 7d 3e b4 5f e3 3d 45 0f c8 3d
       0.14271252 0.24798007 0.11102238 0.097685374
0001d0 8f a9 1e 3e 98 d9 81 3e 3b 37 3c 3e 90 a2 ad 3e
       0.15494369 0.25361323 0.18380444 0.33913088
0001e0 db de 33 3e 21 98 27 3e 03 fa 36 3e 23 25 d4 3e
       0.17565481 0.16366626 0.1786881 0.41434583
0001f0 6a 7d 5f 3d c7 9f 57 3d 73 2a d3 3d b8 6d 0a 3e
       0.054562964 0.05264261 0.10310831 0.13518417

network.4.weight f4 [64, 128]
000000 27 e3 8a 3d e1 86 f0 3b 04 15 42 3d e0 06 3c bd
       0.06781607 0.0073402976 0.047383323 -0.045904994
000010 05 76 5c bd ea 55 c3 bc 58 95 d1 3c 45 3c ec 3c
       -0.05382349 -0.023844678 0.025583908 0.028837333
000020 ee a2 c3 bd 0b a2 b9 3d d4 72 94 3d 69 dc 4f 3d
       -0.09552561 0.0906411 0.07248464 0.05074731
000030 76 67 c4 bd 01 dc 97 bd 3d 5f 8e bd 45 61 a7 bc
       -0.09590046 -0.07415009 -0.06951759 -0.020432124
000040 43 28 b9 bd db 26 2f 3d 59 9a a6 3d d2 25 4a 39
       -0.090408824 0.042761665 0.08134908 0.0001927831
000050 ab c5 8e bd 99 b1 80 bd 76 4f 0e bd 43 3c 93 bb
       -0.06971296 -0.06283874 -0.03474375 -0.0044932677
000060 10 54 7d bd 3e ce 70 3d e9 12 f0 3d 04 5c de 3c
       -0.061847746 0.058790438 0.11722357 0.027143486
000070 90 75 92 bd 2a 04 ad bd c5 df 37 bd 70 f2 11 3d
       -0.071513295 -0.0844806 -0.044891138 0.035631597
000080 1f 0d 75 bd 36 6b 9c 3d b7 5b b8 bd 39 55 ae 3d
       -0.059826966 0.07637636 -0.09001868 0.08512349
000090 8a 4f 6c bd 0a ec 5e 3d 98 96 95 bc 66 e5 74 bc
       -0.05769304 0.054424323 -0.018260285 -0.014947271
0000a0 00 44 4a bd 59 7c 04 bd 18 c9 38 3d 98 09 43 bc
       -0.049381256 -0.03234515 0.045113653 -0.011904143
0000b0 86 f7 52 3d 21 47 49 3a 50 72 8d 3b 7a 87 1a bd
       0.051505588 0.00076781405 0.0043166056 -0.037726857
0000c0 6f c6 77 bb 3d c0 1b 3d 13 88 df 3a db aa 71 bc
       -0.0037807485 0.03802513 0.0017054103 -0.014750208
0000d0 3e d9 eb bc 4d b9 08 3d 10 9e 82 bd d9 95 1d 3c
       -0.028790113 0.03337984 -0.06377804 0.009618246
0000e0 08 71 71 3d d2 f2 ee bb 6c 19 fb bb 37 56 92 bb
       0.058945686 -0.00729213 -0.0076629426 -0.004465844
0000f0 bc 14 06 bd a1 0f 06 bd e9 54 8f bd e0 28 39 bd
       -0.032734618 -0.03272975 -0.06998617 -0.045204997
000100 b5 39 10 bc 3c 12 b4 bd 60 2b 2a bd c3 d3 e0 3c
       -0.008802821 -0.087925404 -0.041545272 0.027444726
000110 7f f8 ca bd 0c c1 cb bd dd d2 53 bc 26 57 fd 3c
       -0.09910678 -0.0994893 -0.012928692 0.030925345
000120 ef 33 1d 3d c2 4d 01 be bd cd 91 bc 7f d6 9f bd
       0.038379606 -0.12627319 -0.017798299 -0.07804584
000130 94 87 25 bc 48 83 c2 bb 36 38 b4 3d 6a f7 cf 3c
       -0.010103125 -0.00593606 0.08799784 0.02538653
000140 f7 d9 7e bc 90 4d ef bc 4b b3 e8 bc 3d 70 84 3d
       -0.015554897 -0.02921179 -0.028405806 0.0646672
000150 09 f9 70 bc 46 01 8f bd c6 a3 fe bc 7d 62 7d 3c
       -0.014707812 -0.06982665 -0.031083953 0.015465376
000160 85 93 27 bc 15 32 4f 3d dc 4b 13 bc d5 db c6 bc
       -0.0102280425 0.05058487 -0.008990254 -0.024274746
000170 02 4c ab 3c 69 0d fa bc b6 95 99 bc ba 85 00 bd
       0.020910267 -0.030523973 -0.018748146 -0.03137753
000180 64 b8 08 bd aa b7 63 bd f5 11 85 bc 3b 98 c0 bc
       -0.033378974 -0.055595078 -0.016243914 -0.02351009
000190 73 3f 93 bc 8f 36 14 3c b3 8f 37 bd 86 e9 67 bd
       -0.01797459 0.009046211 -0.044814777 -0.05661919
0001a0 08 fb a6 bd 88 5b ab bd 08 f5 07 be 8b 78 a9 3c
       -0.08153349 -0.083670676 -0.13277066 0.020687362
0001b0 2b f4 15 bd 15 7d 64 bd e8 ef d0 3d b7 ed 83 bd
       -0.03660981 -0.05578335 0.102020085 -0.06441825
0001c0 51 bb 1e 3d 3b ff 32 bc bc 0d 81 bc 17 18 00 3d
       0.038752858 -0.0109251095 -0.01575362 0.031272974
0001d0 e2 40 5c 3c fa 7d 7b bd ba 10 10 bc d3 b0 5a bd
       0.013443204 -0.061399437 -0.00879305 -0.05339129
0001e0 8c e6 54 3c 05 d6 16 3c 82 e0 2d 3d ba e2 23 3d
       0.01299442 0.0092063 0.042450435 0.040011145
0001f0 a9 65 4d 3c a3 36 c1 3c 4f f1 84 3b 6f 5b 9d 3d
       0.012536445 0.023585623 0.0040570865 0.07683455
000200 97 bb 5d bd 16 af 54 bd 6d 5c 9c bd 72 79 bb bd
       -0.054133978 -0.051924787 -0.07634816 -0.09154023
000210 dc 9b 2a 3d d4 4d c1 bc a5 d4 b4 3c a8 56 45 bd
       0.041652545 -0.023596682 0.022074053 -0.048178345
000220 dc d5 6f 3c 46 3f 0e bd f9 c0 fd bb ca fa 1d bc
       0.01463839 -0.03472831 -0.0077439514 -0.009642312
000230 cc 48 7d 39 96 dc c1 bc 1b a4 db bd 9e d3 ad 3d
       0.00024155079 -0.023664754 -0.1072466 0.084876284
000240 e5 d9 31 3d 09 cc 67 3d c4 0d c3 3d b8 66 95 bd
       0.04342069 0.056591067 0.0952411 -0.07294983
000250 ff b0 ad bd 58 1e ec 3c aa c8 ec bc 44 38 26 3d
       -0.08481025 0.028823063 -0.028904278 0.040581003
000260 32 d8 18 3d c0 7d 20 3c df 56 d1 3d f3 9e 84 bd
       0.037315555 0.009795606 0.102216475 -0.0647563
000270 67 f9 ed bc bf 65 75 3b 45 91 ad 3b cf d0 fc 3c
       -0.029049588 0.0037444679 0.0052968585 0.030861286
000280 84 c6 b9 3c 31 e8 c6 3c 6d 0d e8 bb 93 a6 ca 3d
       0.022677667 0.02428064 -0.0070816786 0.09895053
000290 b8 e5 56 3d ba ca c7 3c ab ad 7a bd 62 1c 50 3d
       0.05246517 0.02438866 -0.06120078 0.050808318
0002a0 96 ab 54 3c 6f ec f4 3c 04 ac 01 3e 53 72 86 bd
       0.012980362 0.029897897 0.12663275 -0.06564774
0002b0 69 b7 72 3c 30 a3 05 bc 16 85 b4 bc ca 9d 27 bd
       0.014814236 -0.008156583 -0.022036117 -0.040921964
0002c0 db f7 05 3d 84 f0 d3 3c 07 10 0c 3c 64 95 a4 3d
       0.032707077 0.025871523 0.008548743 0.080363065
0002d0 c2 88 08 3d 8f ef 84 bd 4a ab 06 3d 64 ad b6 3d
       0.033333547 -0.06491005 0.032878198 0.089197904
0002e0 00 1f 21 3c 87 66 30 3c 1a e8 66 bc 38 84 ca 3c
       0.009834051 0.010766632 -0.014093423 0.02472125
0002f0 f5 ce 1f 3d e3 40 e3 3c 58 57 9e bd 14 8e b8 3c
       0.03901573 0.027740901 -0.07731503 0.022528686
000300 74 7b 16 bc e7 1c 69 3b b3 e8 50 bd 0b bd 8f 3c
       -0.009184707 0.0035570206 -0.05100317 0.017546197
000310 e6 eb 47 3d ca 33 6b bd 71 28 d8 3d 36 68 ad 3d
       0.048808955 -0.057422437 0.105545886 0.08467142
000320 68 9d a0 bc 71 d2 13 bd e4 b4 b5 bc 86 44 a1 bd
       -0.019606307 -0.036089364 -0.022180982 -0.07874398
000330 36 47 82 3c 6c cc 3e 3d 24 2b 78 3d 4c 60 af 3d
       0.015903097 0.04658167 0.060588017 0.08563289
000340 4d f5 a0 bc fc a8 88 3c 4c df cd 3b 2c f9 f1 3c
       -0.019648219 0.01668214 0.0062827226 0.02953776
000350 42 2d 09 3d 8d f8 b1 3c 23 00 6e bd 00 62 02 bd
       0.033490427 0.021724964 -0.0581056 -0.03183174
000360 56 11 9e 3d 57 03 79 bd 13 01 59 3d 15 61 9a 3d
       0.0771815 -0.0607942 0.05297954 0.07538048
000370 2e a3 1c bc e3 06 97 3d d7 f8 57 bd 4b 8a 17 bd
       -0.009560389 0.073743604 -0.052727547 -0.03699712
000380 be 70 3f bd bc 51 ba bd 85 c3 35 bc 5a 8e a1 3d
       -0.04673838 -0.09097621 -0.011093979 0.078884795
000390 bc cf b9 3d f0 3e 2a bd 5e b2 90 3d 7d 3c 4a bd
       0.09072825 -0.041563928 0.07065271 -0.049374092
0003a0 e8 39 8e 3d da 03 37 bd 3d cc 79 3d bf f0 80 3d
       0.069446385 -0.044681408 0.060985792 0.06295919
0003b0 f7 3d d1 3c f2 6b e8 3a d9 2d b7 3c c6 d9 80 bd
       0.025542242 0.0017732366 0.022360729 -0.06291537
0003c0 80 0b 86 bd 89 11 b4 bd 3c 22 92 bd 03 0c 51 bc
       -0.06545162 -0.08792407 -0.07135436 -0.0127592115
0003d0 ca 7b ca 3d ef b2 7b bd ff 42 31 bd ec 32 c7 3c
       0.09886892 -0.06144994 -0.043276783 0.024316274
0003e0 65 5d 8d 3d b0 64 be bd 16 43 52 3d db 0c a3 3b
       0.06902579 -0.09296548 0.05133351 0.0049758977
0003f0 a8 f2 a6 3d b9 59 5b 3c a0 50 eb bc 09 6a bb bd
       0.08151752 0.013388091 -0.028724968 -0.09151084

network.4.bias f4 [64]
000000 72 0b da 3c d1 5a c1 bd 61 b7 37 3d fe 47 07 bd
       0.026616786 -0.0944115 0.044852618 -0.03302764
000010 87 f6 54 3d cc 98 48 3d fb 25 c3 bb a3 3f 16 3c
       0.05199292 0.048973843 -0.0059554554 0.009170446
000020 d6 22 86 bd c9 fd 28 be 64 a3 5a bc e3 81 00 3d
       -0.06549613 -0.16503061 -0.013344619 0.03137387
000030 f1 e9 6c bd 38 2a 8d bd 24 8e 6d 3c 99 e0 98 bd
       -0.05784029 -0.06892818 0.014499221 -0.074647136
000040 bb 3b 0a 3d 51 74 bb bd fd 79 a2 3d fe e8 42 3d
       0.03374837 -0.09153045 0.07933424 0.04758548
000050 4a b7 3a 3c f0 ef 56 3c fd 6e 74 bd d1 1a 83 3d
       0.011396239 0.013118729 -0.05967616 0.06401599
000060 5f 41 9a 39 20 cd 2c 3d b8 4c 94 3c 2e fb 1e 3d
       0.00029421874 0.04218781 0.018102989 0.038813762
000070 82 bd 0d 3d 42 ea 3c bd 16 7b 96 3c b4 de 7e bb
       0.034604557 -0.046121843 0.018369239 -0.0038890066
000080 e0 75 31 3d 80 15 ae 3d 3a d8 0a bd 46 50 b1 3a
       0.043325305 0.085001945 -0.033897616 0.0013527952
000090 cf b2 10 3d b2 72 0c bd 21 99 9a 3d f3 c7 a0 3d
       0.035326775 -0.03428907 0.07548738 0.07850637
0000a0 08 46 12 3e 49 36 b2 3d 05 eb b0 bd 15 f1 29 3a
       0.14284527 0.0870176 -0.086385764 0.00064827624
0000b0 3c 9a 5b bc 59 a5 9e 3d f6 b3 f1 3d a4 07 b8 bc
       -0.013403472 0.07746381 0.11801903 -0.02246458
0000c0 f7 41 ac 3d 59 b0 d1 3d 69 b8 32 3d aa dc 8e 3c
       0.08411019 0.10238714 0.0436329 0.017439205
0000d0 cd 07 a3 3d eb dd fc 3d f2 10 99 3d 70 1a 6d bd
       0.07960472 0.12347015 0.07473935 -0.05788654
0000e0 0d 7d c9 3d 73 7a a3 3d b4 b2 1c bc df 0f 98 3d
       0.09838305 0.0798234 -0.0095640905 0.07424902
0000f0 7a 48 7b bc 43 a3 db 3c 9a ed 14 3d 20 68 91 3c
       -0.015337104 0.026811248 0.036359407 0.017749846

network.6.weight f4 [64]
000000 40 09 7a 3f c1 bd 71 3f 2d ee 70 3f 68 98 57 3f
       0.97670364 0.94430166 0.9411343 0.8421693
000010 d7 5b 6b 3f 84 09 69 3f 9c fd 6e 3f a7 37 68 3f
       0.9193701 0.91030145 0.9335573 0.9070992
000020 d1 18 72 3f 09 8f 78 3f 8c 4a 67 3f f0 f4 6f 3f
       0.94569117 0.97093254 0.90348125 0.9373312
000030 69 2f 79 3f f0 1c 6c 3f fb b4 56 3f 9a 2d 6c 3f
       0.9733797 0.92231655 0.83869904 0.9225708
000040 4e c1 67 3f ed 74 79 3f 6b f0 60 3f 82 28 6e 3f
       0.90529335 0.9744404 0.8786685 0.9303056
000050 ec b4 6f 3f 3d 11 71 3f b5 46 6b 3f 14 67 5f 3f
       0.9363544 0.9416693 0.91904765 0.8726666
000060 5e 33 61 3f 6c 97 60 3f bc fd 6f 3f 8b 0d 81 3f
       0.87969005 0.8773105 0.9374654 1.0082258
000070 0c f8 65 3f 68 2a 75 3f 28 15 60 3f 6d c5 72 3f
       0.89831614 0.9576783 0.8753228 0.948325
000080 e6 24 5b 3f 04 15 68 3f c4 de 71 3f 7f 05 69 3f
       0.8560318 0.9065707 0.9448054 0.9102401
000090 4e d6 6c 3f 5d bd 6d 3f e7 41 62 3f 20 0c 6e 3f
       0.92514503 0.9286707 0.8838181 0.9298725
0000a0 ce 78 71 3f 2f ec 77 3f ff ca 6f 3f d5 a2 64 3f
       0.9432496 0.9684476 0.9366912 0.8931096
0000b0 f8 7d 6e 3f 68 dd 67 3f a1 f9 66 3f 1d 4f 6e 3f
       0.93160963 0.90572214 0.90224653 0.9308947
0000c0 63 8c 76 3f c0 2f 6f 3f a6 ea 76 3f ab 7e 6f 3f
       0.96307963 0.93432236 0.96451795 0.93552655
0000d0 c0 d3 65 3f a9 af 70 3f 39 0c 73 3f 77 d6 76 3f
       0.8977623 0.94018036 0.94940525 0.96421
0000e0 ea 13 5c 3f fc f0 6a 3f 05 ff 61 3f d9 fd 5d 3f
       0.85967886 0.9177396 0.88279754 0.86715466
0000f0 54 a1 63 3f ae 7c 66 3f 19 ee 6a 3f fb be 71 3f
       0.8891804 0.90033996 0.9176956 0.9443204

network.6.bias f4 [64]
000000 63 e8 e2 bc fb 54 3a bd d9 fc 04 3c 36 3b b3 bd
       -0.027698701 -0.0454912 0.008116924 -0.08751528
000010 a1 04 3b bd d7 0e 16 3d 91 dc f7 bc 01 25 f8 bc
       -0.04565871 0.036635246 -0.030256541 -0.030291082
000020 cb bf 35 bd cf eb e5 bd 49 c3 09 3c 46 70 16 bd
       -0.04437236 -0.112266175 0.008408376 -0.036728166
000030 ca 7a 09 bd 5c 1c 12 bd a3 ea 7f 3c 0c 6b 57 bd
       -0.033564366 -0.035671577 0.015619907 -0.052592322
000040 4a cc a3 bd 5d e0 26 bc d7 9d 54 3d 19 c3 a3 bd
       -0.079979494 -0.010185328 0.05190834 -0.07996196
000050 76 ff f6 3c 54 4c b1 bd e6 e9 11 3d 4f 8d 81 bc
       0.03015111 -0.086571366 0.035623454 -0.015814452
000060 db c7 33 3d d1 62 8e bd 16 60 a3 3c b3 2a 08 bd
       0.04389177 -0.069524415 0.019943278 -0.033243846
000070 f1 94 e7 39 66 54 20 bd d6 8c 96 3d 78 de 3b bd
       0.00044170723 -0.03914299 0.07351081 -0.04586646
000080 98 0c 8a 3d fe 4e 28 3d 96 67 0b 3d 8b cc 2c bd
       0.06740683 0.041090958 0.034034334 -0.042187255
000090 e6 24 1f bc b0 f4 b8 3c 4e 80 2d 3d e3 f1 38 bd
       -0.009713387 0.022577614 0.04235869 -0.045152556
0000a0 76 a8 dc 3c 57 c3 e6 bc 2e 4b 50 bd 49 ba 72 bd
       0.026935797 -0.028169317 -0.050852947 -0.059259687
0000b0 68 4c 53 bd 4a f4 f1 3b 0a 32 bf 3c db bb 13 bd
       -0.05158654 0.007383858 0.02333929 -0.036067825
0000c0 d8 24 cd bc 21 30 42 3d 7d ab 45 bc ce 58 28 bd
       -0.025041983 0.04740918 -0.012064812 -0.041100316
0000d0 74 fa 30 bc f6 22 42 bd de 0c 49 3d 65 e9 2e bd
       -0.0108019 -0.047396623 0.049084537 -0.04270305
0000e0 d2 72 92 3d 9c 21 41 bd 27 13 d8 3c 5f 31 3c bd
       0.071508065 -0.047151193 0.02637632 -0.04594552
0000f0 f8 08 12 3d c5 f0 a6 3c 3d 02 1b bd fa f7 84 bc
       0.035653085 0.02037848 -0.03784393 -0.016231526

network.6.running_mean f4 [64]
000000 c0 6d 33 3f fd 34 12 3f a3 07 d9 3e bf 85 bb 3e
       0.7008934 0.57112104 0.4238864 0.36625478
000010 c4 21 35 3f 84 3e 34 3f 24 c3 4e 3f e4 07 07 3f
       0.7075465 0.7040789 0.8076651 0.52746415
000020 90 85 11 3f 41 9d 98 3e c4 e3 d5 3e 60 9e e9 3e
       0.56844425 0.29807475 0.41775334 0.45628643
000030 1e d9 66 3f 8b 15 b2 3e 19 47 d8 3e a2 7b 23 3f
       0.90175045 0.3478206 0.42241743 0.63860524
000040 ea 57 04 3f b7 90 18 3f 80 fb 03 3f fb bb 24 3f
       0.51696646 0.5959582 0.51555634 0.64349335
000050 9a 42 bc 3e b5 73 1a 3f 27 d2 0c 3f b4 d2 1d 3f
       0.36769563 0.60332805 0.5500817 0.6164963
000060 3b 9f 47 3f d9 ab 11 3f c5 9c 21 3f 68 49 20 3f
       0.7797734 0.56902844 0.63129836 0.6261201
000070 aa cf 1d 3f 8d 32 f7 3e ac c6 1a 3f 44 30 48 3f
       0.61644995 0.48280755 0.604594 0.7819865
000080 9a b9 d3 3e 4c 81 40 3f 74 46 1e 3f ee 34 1a 3f
       0.4135254 0.7519729 0.6182625 0.60237014
000090 b7 f6 09 3f fe ef ff 3e d2 b1 50 3f 2c 8c 41 3f
       0.5389208 0.49987787 0.8152133 0.7560451
0000a0 a0 e0 0d 3f f1 09 24 3f 71 c5 18 3f f1 9d 1a 3f
       0.55420876 0.6407767 0.5967627 0.6039725
0000b0 1e e4 0a 3f 73 1c 09 3f a4 14 19 3f 23 b8 08 3f
       0.5425433 0.53559035 0.5979712 0.5340597
0000c0 06 f6 13 3f 7d 52 30 3f e6 d4 09 3f fd 16 2a 3f
       0.57797277 0.6887587 0.5384048 0.6644133
0000d0 5e 02 2f 3f 1a 6c 25 3f c4 6a 26 3f 2d dc 26 3f
       0.6836299 0.64618075 0.6500666 0.6517971
0000e0 60 c3 49 3f f3 26 32 3f 17 9d fa 3e b5 cc f5 3e
       0.78813744 0.6959068 0.48947975 0.48007742
0000f0 49 64 0d 3f 7d 8b d7 3e da 08 03 3f 7f 01 29 3f
       0.5523115 0.4209861 0.5118538 0.6601791

network.6.running_var f4 [64]
000000 b6 7a 4b 3f d0 67 3e 3f 82 b1 b2 3e 2e f8 0d 3f
       0.7948412 0.74377155 0.34901053 0.5545682
000010 f1 8e 55 3f 8c 73 89 3f 62 aa 9f 3f cb ce d5 3e
       0.83421236 1.0738387 1.2473872 0.41759333
000020 f7 a8 2f 3f 4a 67 cd 3e 50 4d 0c 3f af 1f 10 3f
       0.68617195 0.40117866 0.5480547 0.56298345
000030 e0 e1 be 3f 20 77 c3 3e ed de 02 3f 39 ed 4c 3f
       1.4912682 0.38176823 0.5112141 0.80049473
000040 2f 00 28 3f 5c e4 cd 3e 4f c2 30 3f f2 40 32 3f
       0.6562528 0.40213287 0.6904649 0.6963035
000050 f5 71 de 3e 6f 6a 05 3f ed cb 29 3f e7 a0 76 3f
       0.43446317 0.5211553 0.6632679 0.9633927
000060 91 c5 b0 3f b1 04 32 3f 5c 30 19 3f 53 e7 0c 3f
       1.3810292 0.6953841 0.59839416 0.5504047
000070 cf 41 7a 3f de c8 e7 3e 55 0c 2c 3f f2 84 85 3f
       0.97756666 0.45270437 0.6720632 1.0431197
000080 e1 a0 d3 3e 9d 8d 6f 3f c5 33 5a 3f 8b e7 2a 3f
       0.41333678 0.9357546 0.85235244 0.66759557
000090 ea 8b cc 3e 21 47 80 3f e5 28 9f 3f 12 cb 63 3f
       0.39950496 1.0021707 1.2434355 0.88981736
0000a0 fc e4 cf 3e fb 76 8b 3f 3f 6e 24 3f 6a 25 10 3f
       0.4060439 1.0895685 0.6423072 0.5630709
0000b0 8f a0 02 3f a4 07 70 3f 4f 42 36 3f 36 24 f0 3e
       0.5102624 0.9376166 0.7119493 0.46902627
0000c0 d2 f4 06 3f b9 ec 7f 3f 86 4a 2e 3f 75 06 46 3f
       0.52717316 0.99970585 0.68082464 0.773536
0000d0 d3 6f 3a 3f f1 d8 32 3f 36 82 76 3f 2f 08 7e 3f
       0.7282688 0.69862276 0.96292436 0.9923124
0000e0 e2 ba 8a 3f 26 20 32 3f 5e 3d 1c 3f e7 d1 f3 3e
       1.0838282 0.69580305 0.6103114 0.4762108
0000f0 4a 54 75 3f 5f 66 e1 3e f4 5e b7 3e cc 2f 22 3f
       0.9583174 0.44023415 0.3581463 0.6335418

network.8.weight f4 [32, 64]
000000 1c 98 63 3d 47 1a 2c bd 2c 12 f6 3d 20 a1 79 bd
       0.055564985 -0.042017248 0.12015185 -0.060944676
000010 22 ec 8d bd 56 37 90 3d 7c 5e 07 3d 5a 7e 25 bc
       -0.069298044 0.070418045 0.03304909 -0.010100925
000020 67 be cb 3c 3a 69 b0 3d d2 c0 ee bc ba 55 b1 bc
       0.024871064 0.086138204 -0.029144678 -0.021647323
000030 28 37 2c 3d 78 0d 6f 3c 0a 8b 67 3c 0e 98 cd bc
       0.04204479 0.014590614 0.014132271 -0.02509692
000040 e5 07 b4 3d 91 3a 75 3c a3 a7 0d bb 53 6e 10 bd
       0.08790568 0.014967577 -0.0021614812 -0.035261463
000050 65 e2 76 3d bb 2a 16 3d 62 d3 43 3d e0 e9 8e 3d
       0.0602745 0.036661845 0.047809012 0.06978202
000060 05 43 ac 3d 6f 1b 10 bd fd aa 0c bc 1e ad 45 3d
       0.084112205 -0.035182413 -0.008585689 0.0482608
000070 0b 14 5c 3d cd f5 7c bd c8 b1 62 3d c1 8f 8b 3c
       0.053730052 -0.06175785 0.055345327 0.01703632
000080 12 a7 3a 3b f1 82 9d 3d e5 79 82 3d 6f 96 74 bd
       0.002848093 0.07690991 0.06370906 -0.059713777
000090 86 72 18 3c f5 33 e3 3d 89 ff 78 3d 9f eb 10 bd
       0.009304648 0.110938944 0.060790572 -0.035380956
0000a0 29 d0 65 bd 8b b3 36 3d d8 20 31 bc a9 2f c9 3c
       -0.05610672 0.04460482 -0.010811053 0.024558859
0000b0 99 69 5b 3d c2 99 3c 3d d3 24 34 bd 18 4f 99 3d
       0.053567503 0.046045072 -0.04398043 0.07485789
0000c0 7b 9d 88 3b ea a5 3c bd 2a 68 cb 3d 9b 03 e3 bc
       0.0041691638 -0.046056665 0.09931977 -0.02771168
0000d0 4b 40 56 3d 5f 2f 13 bd c9 ec 52 3c 7f ff a3 3d
       0.05230741 -0.03593385 0.012873837 0.080077164
0000e0 54 a5 c1 3c d5 74 90 bc c3 28 23 bd 5f 77 e5 3d
       0.023638405 -0.017633835 -0.039833795 0.11204409
0000f0 08 b0 54 3d 3f a5 3a 3d 83 16 94 3d 9e f4 1a 3d
       0.05192569 0.045567747 0.07230856 0.03783094
000100 1f 16 98 3d 4c 3b 0a 3e 48 6c dc 3c 7e 7c 67 3d
       0.07426094 0.13499182 0.026907101 0.05651521
000110 39 64 ea bb b6 b1 0e 3c c8 3e f2 bc 4e 0b 26 3d
       -0.0071530608 0.008709362 -0.029570952 0.040538125
000120 c7 f5 10 bd ed bd e9 3d f0 64 00 be ad de ec 3c
       -0.03539064 0.114131786 -0.12538505 0.028914774
000130 ec e2 69 bd 48 a8 f9 3d 30 4a 9b bc 40 e4 b6 bd
       -0.057101175 0.121903 -0.018956274 -0.08930254
000140 a8 23 fa 3a 0f 23 d5 bd 0c 1c 88 3d 94 ea f9 3d
       0.0019084113 -0.104070775 0.066459745 0.12202945
000150 d2 86 01 be 77 6c d7 3d a7 58 8d bd 8e 58 ef 3d
       -0.12649086 0.10518735 -0.06901675 0.11686812
000160 68 6c c4 3d 6b 22 af bd 33 68 d2 bc fe d8 b2 3d
       0.09590989 -0.085514866 -0.025684452 0.08732794
000170 35 b5 b7 bd 4e a7 79 bc fa 6b 94 3d 22 98 5b 3d
       -0.089701094 -0.015237642 0.072471574 0.053611882
000180 a2 db 55 bd a9 f3 5f 3d 66 b3 e2 3d 57 18 9e 3d
       -0.05221141 0.05467573 0.11069374 0.07719486
000190 92 ad a5 bd 99 da 9c 3c 4c e9 ab 3c c8 38 41 3d
       -0.080897465 0.019147204 0.020985268 0.04717329
0001a0 fd f2 f2 3b 1b ab 03 3d 82 f1 c9 3d 87 e2 b1 3b
       0.0074142204 0.0321456 0.09860517 0.0054286155
0001b0 bd d0 9b 3d ff 14 f7 bc 13 82 bb bd 2a c4 98 bd
       0.07608173 -0.030161379 -0.09155669 -0.0745929
0001c0 b0 e5 c7 bd 92 51 88 bd b8 84 c5 bd 58 26 f3 bd
       -0.09760606 -0.06656183 -0.09644455 -0.11872548
0001d0 fa ef a6 bd c8 87 f5 bd 09 48 e0 3c d5 e0 a3 3c
       -0.08151241 -0.11988789 0.027378099 0.02000467
0001e0 79 e0 f8 3c 8c 4a 3b bd ff f7 01 be f8 a2 90 bd
       0.030380474 -0.04572539 -0.12692259 -0.07062334
0001f0 c1 7c 2a 3d 15 3c 9d bd 15 a2 92 bd 5b 04 cb 3d
       0.04162288 -0.07677475 -0.07159821 0.0991294
000200 c7 03 bf 3d 37 c2 d5 3d 45 26 99 bd f9 91 be 3d
       0.09326892 0.10437434 -0.074780025 0.09305186
000210 a1 19 e8 bc d1 1e c0 bd f8 95 c2 3d cb 51 cc bc
       -0.028332533 -0.09380878 0.095012605 -0.024941346
000220 97 f0 6e 3d 05 8b 8f bd f5 a8 ce 3d 4a 72 63 bd
       0.058334913 -0.07008938 0.1009082 -0.055528916
000230 85 40 d3 bd 62 ac b9 3d 0f bd 09 be 10 82 c6 3c
       -0.103150405 0.090660825 -0.13451026 0.02423194
000240 a6 7f 1d bc 57 43 6b bd 26 57 0e 3e 83 aa e5 bb
       -0.009612953 -0.057437267 0.13900432 -0.007008852
000250 81 2c 3f bc c0 9c bf bc 04 18 90 bd 31 1b 59 3d
       -0.011668325 -0.023390174 -0.070358306 0.053004447
000260 e8 f3 e7 bc a9 e2 2f 3d 75 7c 31 3a ed 44 0d be
       -0.028314546 0.04294077 0.00067705597 -0.13795824
000270 5b ce 00 3c e6 5b c9 bd d5 1a 69 bd cf a8 7d 3d
       0.007861699 -0.09831981 -0.056910355 0.061928567
000280 0f 23 76 bd 63 60 d2 3d a2 a9 17 3e 6d 93 de 3c
       -0.06009203 0.102722906 0.14810804 0.027169907
000290 ef 57 90 3d e4 eb 7d bc 62 8b a6 bd f2 7c 54 bc
       0.07048022 -0.015498135 -0.08132054 -0.012969242
0002a0 64 12 df 3d 2f 7f f1 3d f8 b1 86 bd 70 df e9 bd
       0.108921796 0.117918365 -0.065769136 -0.114195704
0002b0 39 2c ce bc 8b 68 93 bd 9c 17 f8 3d 6e d0 d8 bd
       -0.025167571 -0.07197674 0.12113878 -0.1058663
0002c0 44 93 31 bd a2 53 05 3e d0 d8 b7 bc 29 55 18 3d
       -0.043353334 0.13020185 -0.022442251 0.03719059
0002d0 05 ac dc 3d 13 35 86 bd ef 34 aa bb 79 41 f5 3c
       0.107749976 -0.06553092 -0.0051942985 0.029938446
0002e0 2e cd 9f bd 2b 36 0e 3d 2c a5 da bd b3 b0 b7 3d
       -0.07802807 0.034719627 -0.10676035 0.089692496
0002f0 82 f2 ad bd 60 34 b5 3d 50 58 83 3d aa e9 e0 bd
       -0.0849352 0.0884788 0.06413329 -0.10982068
000300 6f b6 b6 bd 10 c8 10 bd 04 e2 a5 bd 9f f1 80 bc
       -0.08921515 -0.035347044 -0.0809975 -0.015740214
000310 d6 66 3f 3b 9d 9c 3e bc f4 ed 8a bd 7c 68 e7 bc
       0.0029205582 -0.011634019 -0.06783667 -0.028248064
000320 fa 75 b9 bc 02 45 57 bd 9b db 1a 3d f4 dd 1a 3d
       -0.022639263 -0.052556045 0.03780709 0.037809327
000330 ef 2c ab bd ae 9b 8c 3d 85 31 5f 3c 19 19 c7 3c
       -0.0835818 0.06865631 0.013622646 0.02430396
000340 7e 06 8f 3d de 8b 78 bd fd 8f 5d 3d 7f f0 89 bd
       0.0698366 -0.060680263 0.054092396 -0.06735324
000350 dc f6 57 bc 3a 92 5e 3d ad f9 bb bc 85 cc 48 bc
       -0.013181414 0.05433867 -0.022946203 -0.0122557925
000360 74 ca a0 bc b3 49 80 bd 58 f9 5b bc ad 38 11 bc
       -0.019627787 -0.06264057 -0.013426147 -0.00886361
000370 6e a4 85 3d 6c 9f ae bd 69 34 dc bc 00 e3 cd bd
       0.06525503 -0.08526501 -0.02688046 -0.100530624
000380 bb f7 59 bd 31 01 af 3d 1b 42 dd bc 10 f4 58 3c
       -0.05321477 0.08545149 -0.02700906 0.013241783
000390 23 08 ef bb 05 fd 69 bd 81 c2 be bc 46 2b 3f bc
       -0.007294671 -0.057126064 -0.023286106 -0.011668032
0003a0 cb 14 3a bb 08 4c 85 3d bf 5f e9 bd 57 a8 93 bd
       -0.0028393741 0.065086424 -0.11395215 -0.07209843
0003b0 b0 45 04 3d cd 35 75 bc 34 b8 1f 3d 3c 3a 18 3d
       0.03229302 -0.01496644 0.03899403 0.03716491
0003c0 2c 41 87 bd 1a 14 51 3d 50 25 48 bc 27 19 57 bd
       -0.066042274 0.05104456 -0.012215927 -0.05251422
0003d0 89 88 d2 bc 86 47 80 bd 40 5d 92 bd a9 56 98 3b
       -0.02569987 -0.06263642 -0.07146692 0.0046490026
0003e0 f2 0e 9b 3d 15 33 4b 3d a1 ed 6e bd c3 6c 7e 3c
       0.0757121 0.049609262 -0.05833209 0.0155288605
0003f0 dc 1c 0e 3d 98 cd 4e bd 30 7b c3 3c 3a a0 b5 3c
       0.03469549 -0.05048904 0.023862451 0.022171129

network.8.bias f4 [32]
000000 58 09 e5 bd 4b ce 3f bd 23 06 48 3d aa f6 74 bd
       -0.11183423 -0.046827596 0.048833977 -0.05980555
000010 d0 5a 87 3d f4 65 83 3e a7 15 22 3e 08 60 d0 3c
       0.06609118 0.25663722 0.15828572 0.025436416
000020 85 cf 94 bd 02 6c af 3d 0b 6c 37 3e 88 5a ee bd
       -0.07266144 0.08565523 0.17912309 -0.11638361
000030 c5 12 f3 bc 14 dc 22 3e 26 44 bb 3d 2b a1 dd bc
       -0.029672036 0.15904266 0.09143858 -0.02705439
000040 3d 5e 88 bd 0d 83 35 3e 68 6a 3c 3b 3c 0d e0 3d
       -0.066585995 0.17725773 0.0028749947 0.10940024
000050 86 24 6b 3e d2 1d e8 bd a4 84 1b 3c 7f 42 b2 bd
       0.22963151 -0.11333813 0.009492073 -0.087040894
000060 02 8b f7 bc bd ee 89 3d 1e 57 ab bd d2 62 2a 3d
       -0.030217651 0.06734989 -0.08366226 0.04159815
000070 04 50 41 3e 9a 55 ae bd bd 7f 24 3e 19 a7 e7 3d
       0.1887818 -0.08512421 0.16064353 0.11311168

network.10.weight f4 [1, 32]
000000 22 36 b4 bc d3 13 61 3c bf 10 47 3d 4a cd 90 bd
       -0.021998469 0.013737637 0.048599955 -0.07070406
000010 1c 08 18 3e 33 a5 24 3d 15 4c 50 3d 3c 59 63 bd
       0.14846843 0.04019661 0.050853807 -0.055505022
000020 df fc a5 bd e1 5e 93 3d 1e b9 06 3d d4 f4 7f bd
       -0.08104872 0.07195831 0.032891385 -0.062489346
000030 ba 86 94 bd df 73 f6 3d b0 2d 6e 3d 43 a3 7c 3d
       -0.072522596 0.120338194 0.05814904 0.061679136
000040 1a 08 4b bd bd bc d6 3d 81 c9 6b bd 4d 25 ca 3d
       -0.049568273 0.10485218 -0.057565216 0.09870396
000050 11 3e ab 3d 2a 4e ea bd a9 b0 b5 bd c6 64 1f bc
       0.083614476 -0.1144069 -0.08871586 -0.009728616
000060 51 90 4c 3d f3 b7 06 3d ad 7c e1 bc 02 fe e6 3c
       0.04994232 0.03289027 -0.02752527 0.028197292
000070 eb 47 59 3d 1f aa 2b bd 9c 40 00 3d c4 a3 3a 3d
       0.053047102 -0.041910287 0.031311616 0.045566335
